project/trained_model/model_vsl.pth (torch_old, 3191 bytes, 6 tensors)

fc1.weight f4 [16, 8]
000000 af b7 64 3e 27 53 45 3f 9d ab f5 be e9 24 17 3e
       0.22335695 0.77080005 -0.47982493 0.14760174
000010 42 20 91 be f9 ba a0 3e ed 5d 4e 3d 0a cb 0f bf
       -0.28344923 0.3139265 0.050382543 -0.5616919
000020 f0 34 06 be 5a 6d 82 be c0 6f b0 be c8 32 00 be
       -0.13106132 -0.25474054 -0.34460258 -0.12519372
000030 36 cf 3a 3e f0 31 29 be 3a 6a 35 3e 00 8a a4 bb
       0.18243107 -0.16522956 0.17716303 -0.0050213337
000040 6f b6 2c bd a1 78 77 3e de 60 34 be 4a 62 47 3e
       -0.04216617 0.2416711 -0.17615077 0.19471088
000050 95 2f a1 bd 39 79 e5 3d 52 51 de bc 29 49 de be
       -0.07870404 0.11204762 -0.027138386 -0.43415192
000060 df b0 a7 be b3 4a b0 3b f1 63 c4 bd 09 00 7c 3e
       -0.3275213 0.0053799986 -0.09589375 0.24609388
000070 0d 35 19 3e 8b c5 ed be cc 7c ef be a4 60 30 be
       0.14961644 -0.46439776 -0.467749 -0.17224365
000080 48 e2 9b 3f d1 9d 62 3f 04 6e 87 3f d0 40 d8 3b
       1.217843 0.8852206 1.0580449 0.006599523
000090 89 de f5 3d 2d f3 1f bd df 44 df be e1 4f 30 be
       0.12005336 -0.03905027 -0.43607232 -0.17217971
0000a0 01 ca ae be 98 57 14 3e 24 d5 cb be aa 5f 4d 3d
       -0.34138492 0.1448654 -0.3981105 0.05014006
0000b0 3b 54 3a 3e ef 3f 98 3e 39 8a c6 3a d7 fb 75 be
       0.18196194 0.29736277 0.0015147395 -0.2402185
0000c0 22 af f2 3f 20 53 8a 3f 9f 28 a4 3f b4 95 ef 3d
       1.8959696 1.0806618 1.2824897 0.116984755
0000d0 71 67 b9 3e ee 4c 06 3f 22 b3 0e 3f 6c 5b 3d 3e
       0.36211732 0.52461135 0.55742085 0.18491906
0000e0 68 48 68 3f e1 8d e6 3f 61 23 58 bf 88 60 c4 bd
       0.90735483 1.8012048 -0.84428984 -0.095887244
0000f0 3e 34 50 3f a7 87 95 3f 15 60 ca be c3 73 b1 bf
       0.81329715 1.1682023 -0.3952643 -1.3863453
000100 95 2e 02 be 54 47 5b be d1 83 64 be fe 54 68 3e
       -0.12713082 -0.21413928 -0.22315909 0.22688672
000110 ba 4e 27 3e e5 f7 03 be a0 5e a3 be 4b 03 24 be
       0.16338626 -0.12887533 -0.3190813 -0.16016881
000120 c9 3a 29 3f 58 76 53 3f f5 85 cb 3d 70 ef f3 be
       0.66105324 0.82602453 0.0993766 -0.47643614
000130 1c 03 d2 3e cf 9f a1 3e ed 27 77 be ad 8a 53 bf
       0.41017997 0.31567237 -0.24136324 -0.8263348
000140 f1 bc e2 bd 58 25 b3 be bf 3f e5 be 11 4c 13 3e
       -0.11071194 -0.3498943 -0.44775197 0.14384486
000150 84 8c de be 5d 4e 24 3e 8b f8 cf 3d f7 c3 15 3e
       -0.4346658 0.16045518 0.10154828 0.14625536
000160 7c a0 e9 bd f2 f5 2f 3e 34 95 a9 3d 08 cd d3 3d
       -0.11407563 0.17183664 0.08280411 0.10341841
000170 cc 13 8f be 34 de 6f be 8b 9a 16 be 20 8b 5c bd
       -0.2794479 -0.23424608 -0.14707391 -0.053843617
000180 a0 a4 0d bc 4b 34 a4 be 99 c2 a6 be 90 73 87 bd
       -0.008645207 -0.32071146 -0.3257034 -0.06613839
000190 0e 53 11 3e 36 9c 05 be 14 01 93 bd 00 f0 32 3c
       0.14191839 -0.13047871 -0.0717794 0.010921478
0001a0 a5 95 3c 3f 31 46 b6 3f a6 ad f5 bd d7 46 ef be
       0.7366584 1.4240171 -0.119960114 -0.46733734
0001b0 05 67 78 3d a7 64 9a 3e 06 ea 0e bf 2c db 3d bf
       0.060645122 0.30154917 -0.5582584 -0.74162555
0001c0 d0 d0 f9 3d 95 cc 31 be 33 75 b0 bd a1 56 4b be
       0.12198031 -0.17363198 -0.08616104 -0.19857265
0001d0 31 aa a7 be 31 cc 7b 3e 5b 3d cb bd 81 0c 8d bd
       -0.32747033 0.24589612 -0.09923812 -0.068871506
0001e0 93 4d 8c 3e 3f 16 ce be 90 74 d3 be 76 a2 00 3d
       0.27402934 -0.40251347 -0.41299868 0.031404935
0001f0 72 79 4f 39 bc da 83 bd 7b a7 0f 3d 40 b1 49 3b
       0.000197863 -0.06438205 0.03507183 0.0030775815

fc1.bias f4 [16]
000000 85 9c fd bf 86 ab 5a be ac 82 a9 be c2 79 d7 3d
       -1.9813391 -0.21354493 -0.33107507 0.1052127
000010 2f 6a 9c c0 5c a9 00 bf f0 fc 85 c0 b9 5d 86 c0
       -4.887962 -0.5025842 -4.187126 -4.1989408
000020 ea 68 40 be a3 63 75 c0 5f b7 d4 be e4 cd 0d be
       -0.18790022 -3.8342063 -0.4154615 -0.13848072
000030 00 ed 81 bc 76 9b 6e c0 fa 88 b2 bd 2a 58 37 be
       -0.01586008 -3.7282386 -0.087175325 -0.17904726

fc2.weight f4 [16, 16]
000000 98 eb 8e 3c 6c 56 77 3e 0b dd a6 be 64 cd b1 be
       0.017446324 0.24154061 -0.32590517 -0.34727013
000010 d3 3c d8 bd 1f a6 e1 bc d7 52 10 bd 1f 16 ef bd
       -0.10558476 -0.027545033 -0.035235252 -0.11674141
000020 e8 f0 c8 bd ee 97 86 bd 40 16 f3 bd 18 b1 81 3d
       -0.09811574 -0.06571947 -0.11869478 0.06332606
000030 0c 17 ec 3d bd 9f 0a be 0c c1 a1 bc 76 e5 0d 3e
       0.11527833 -0.13537498 -0.019745372 0.13857064
000040 13 a2 01 3e a0 ee c7 3d 64 67 29 bd de 2b c5 bd
       0.12659483 0.09762311 -0.041358367 -0.096275076
000050 bd 20 ad bd c7 41 c9 3d 3d 1b 87 be 47 8f 8b bd
       -0.0845351 0.09826999 -0.2638797 -0.06814437
000060 58 b3 08 be fc f6 4d 3d 6e 5c c7 bd e4 bd eb bd
       -0.13349664 0.05028437 -0.097344264 -0.11510828
000070 ca cf 05 3e 91 84 03 3e bd ec 07 3d 6b dd da bd
       0.13067546 0.12843539 0.033184756 -0.106867634
000080 a7 4d 93 3c 70 36 2d 3e d3 15 13 be 57 38 be 3d
       0.017981363 0.16915298 -0.14363794 0.0928809
000090 b9 7b a9 bd 34 14 d3 3a d5 d1 d9 3e a4 39 46 bf
       -0.08275551 0.0016104043 0.42542902 -0.774317
0000a0 10 47 09 be 28 3a e8 bd e4 5b 30 3d c0 3d 85 bd
       -0.13406014 -0.113392174 0.043056384 -0.065059185
0000b0 98 d2 81 bd e7 e5 0e bf b6 31 29 be 10 22 d3 bd
       -0.06338996 -0.55819553 -0.1652287 -0.10309231
0000c0 f3 0a 1e 3e 28 8f a4 3d c9 8e 59 3d 91 7b da 3d
       0.15433864 0.080351174 0.053114686 0.106681
0000d0 6c ec 97 3d c3 65 9c be 91 bf e4 bd ee 5c 40 3d
       0.07418141 -0.30546388 -0.11169351 0.046963625
0000e0 30 86 10 bd fc 2d 40 be 2e 80 3a 3e 7c 6f 18 3e
       -0.03528422 -0.18767542 0.18212959 0.14886278
0000f0 4a 19 6d be ee b3 c3 bd ee bb 1b 3e 02 2c 5c be
       -0.23154178 -0.09555803 0.15208408 -0.21501163
000100 71 e5 f3 3e e0 7a 87 bc fc 78 63 3d 60 59 e0 bc
       0.47635987 -0.016538084 0.0555353 -0.027386367
000110 54 63 6b 3f fd 1c f6 3b 4b 68 c9 3f fc e2 ea 3e
       0.9194844 0.00751078 1.5734953 0.458763
000120 30 97 20 bd 17 1b d7 3e 00 f4 73 3d 40 32 6e 3e
       -0.039206684 0.42012855 0.05955887 0.23261356
000130 a2 d2 3a be 21 d7 38 3f 3f b1 6e 3e c2 69 0b 3e
       -0.18244413 0.7220326 0.23309802 0.13614562
000140 67 4a 31 be 1c fe 3f 3e 66 02 ac bd 4a 4e bb be
       -0.17313538 0.18749279 -0.08398895 -0.36583167
000150 6c 0d af be f2 79 c7 be ef e5 69 be b4 7f 14 bf
       -0.34189928 -0.38960224 -0.22841619 -0.5800736
000160 e0 37 6e bc 26 bd 95 be bc fa 9f be 9c d9 34 3e
       -0.014539689 -0.2924587 -0.31245983 0.17661136
000170 ce 1e 43 be 59 79 03 bf a8 c1 41 3e a0 d2 61 bd
       -0.1905472 -0.51357037 0.1892153 -0.05513251
000180 e8 d9 b0 bd aa d2 28 be 01 6b cc 3d c9 94 97 be
       -0.08635312 -0.16486612 0.09981347 -0.29605702
000190 d4 e1 d6 3b d5 25 f8 3d fb 0b 7c be 91 5d 51 3d
       0.0065576825 0.12116591 -0.24613945 0.051114623
0001a0 c0 53 e9 3d bb e1 88 bd 35 22 a7 3d 96 78 6e be
       0.11392927 -0.0668368 0.08160821 -0.23288187
0001b0 ae 0d 39 3e 10 32 4b 3e 03 f2 45 3d 58 de 9c be
       0.18071625 0.19843316 0.048326503 -0.30638385
0001c0 96 d4 23 3e 30 fb 1a 3e ae 78 21 3e c9 3c 3e bd
       0.15999064 0.15134883 0.15768692 -0.046444688
0001d0 f7 ed d1 bd 3f de e3 3d 94 80 00 3f bf 89 bc 3f
       -0.10250466 0.111263745 0.50196195 1.4729537
0001e0 10 2d 26 3e da 1e d1 3e be b3 21 3c 2a 5f 6a be
       0.16228127 0.4084385 0.009869514 -0.22887865
0001f0 4c 31 f5 3d 5c 0f a2 3e 86 6f c0 3d 4e 04 8c bd
       0.11972293 0.31652343 0.093962714 -0.068367586
000200 d0 42 70 be 9c 63 eb bd fc f1 e1 bd 00 05 cf bd
       -0.23462987 -0.11493608 -0.11032483 -0.101083755
000210 45 ff 80 3d 22 d0 81 be 98 26 d8 bd 36 54 2d be
       0.06298689 -0.25354105 -0.10554236 -0.16926655
000220 bc 4c 01 3e a2 9b 21 bc ec 1e 9f 3d 58 f3 5d 3d
       0.12626928 -0.009863766 0.0776957 0.05418715
000230 46 6d 05 3e dc 63 fb 3d 58 a4 2d be 00 61 3c bb
       0.13029966 0.12274906 -0.16957223 -0.002874434
000240 77 e3 88 be 18 22 74 be 88 0a 79 be 12 4b 00 be
       -0.26736042 -0.2384113 -0.24320424 -0.12528637
000250 ce e0 98 be de cc b1 be 2e f7 bd bd 50 f1 2c be
       -0.29859012 -0.34726614 -0.092756614 -0.16888928
000260 60 0a 62 3c 61 b8 c1 3d 68 02 7c 3e 40 7b 96 bb
       0.013796419 0.094589956 0.24610293 -0.0045923293
000270 a6 e2 0e be 69 48 68 be 8e b7 4b be 5c 5b 55 3e
       -0.13953647 -0.22683872 -0.1989424 0.20835632
000280 f8 de 82 bd ca 61 58 be d6 84 3e 3e 4c 82 11 be
       -0.06390184 -0.21131054 0.1860536 -0.1420986
000290 8e d8 d1 be 34 9a 6e bd 90 3b 71 be e9 42 5b 3e
       -0.4098553 -0.05825253 -0.23557878 0.21412243
0002a0 bc e4 06 be f8 3b 7f bd c4 72 ae 3d 68 9b 6d 3e
       -0.13173193 -0.06231305 0.085179836 0.23203814
0002b0 4c 29 57 3e 05 e4 57 be b8 4f 6b 3d 68 80 6e be
       0.21011847 -0.21083076 0.057449073 -0.2329117
0002c0 28 db d0 be dc 13 e5 bd 0d f2 50 bb 34 66 66 3e
       -0.40792203 -0.111854285 -0.0031882555 0.22499925
0002d0 9e 1f 87 3e 9c bc 3a be b5 db 8b bb 6f 11 24 bf
       0.2639131 -0.18236011 -0.0042681345 -0.640891
0002e0 50 ad d4 bd 75 64 f4 bd 47 44 49 3e c0 b6 16 bd
       -0.10384619 -0.11933223 0.19654952 -0.036795378
0002f0 a8 c8 14 3d 37 5a e7 3b 9c 6c e6 3d 98 8d 2e 3e
       0.036324173 0.007060315 0.11251184 0.17046201
000300 66 26 3b 3e 70 b3 a0 3d ad 22 c2 bd 12 92 64 3d
       0.18276367 0.07846725 -0.0947927 0.055803366
000310 ac 31 09 3d 6d ba 94 3d 0e 78 8d be f5 e1 93 3f
       0.033494636 0.072621204 -0.27630657 1.1553332
000320 a8 0d 60 be 3b d6 b8 3e f9 8e 60 3d a0 e2 5f bc
       -0.2188021 0.36100945 0.05482385 -0.013664871
000330 3e c6 50 3e 1e 7d e2 3e ae 9b 51 3e b3 31 ed 3a
       0.20388123 0.44236082 0.20469543 0.0018096477
000340 d2 a7 4d 3e a0 de e3 bd b4 4a df bd da 7a 2d 3e
       0.2008355 -0.11126447 -0.1090292 0.16941395
000350 d2 e7 5c be 5c 2f 94 bd d2 6d 31 be 58 da 06 bd
       -0.21572807 -0.072355956 -0.1732705 -0.032923073
000360 78 80 71 3e 80 b2 2f bd 18 4d 30 3e 4a 26 12 3e
       0.23584163 -0.04289484 0.17216909 0.14272419
000370 98 71 f2 3d c4 d6 c3 bd b4 85 08 be 8a 4d 2c 3e
       0.118380725 -0.09562448 -0.13332254 0.16826454
000380 c5 98 e7 be 00 83 d5 3b 4e 4a 8e 3d ca 83 7e be
       -0.4523374 0.0065158606 0.06947766 -0.24854961
000390 bc 4a 9b be 20 06 f0 bd fa 3b e9 bd 99 0e a5 be
       -0.30330455 -0.11719918 -0.11388393 -0.322377
0003a0 a0 ff 7e be e9 f5 a3 be a9 10 8c 3d d8 2f 67 3e
       -0.249022 -0.32023552 0.06839115 0.22576845
0003b0 90 31 0c bd 1d bd d9 be c1 ba 11 3c 50 5e 74 bd
       -0.034226954 -0.42527094 0.008894623 -0.059660256
0003c0 58 87 b1 bd f8 bd 82 3d e4 32 20 be e0 3c e8 3d
       -0.08668393 0.0638389 -0.15644413 0.11339736
0003d0 08 d1 d1 bd e6 ee 70 be 6c bf b1 bd c0 40 48 3e
       -0.10244948 -0.23528633 -0.08679089 0.1955595
0003e0 b2 d8 4e be 38 10 05 bd 60 68 17 3c 54 a6 df 3d
       -0.2019985 -0.03248617 0.0092411935 0.109203964
0003f0 8c 86 32 3e 38 52 38 bd 04 87 77 be 18 9d c8 bd
       0.17434138 -0.045000285 -0.24172598 -0.09795588

fc2.bias f4 [16]
000000 2a cd 5d bf 7e eb 93 be 01 91 6b c0 4f 67 9c bc
       -0.8664118 -0.28890604 -3.6807253 -0.01909223
000010 f7 a9 d9 bf 47 8c 85 bc 0f ad a9 3d 39 e3 82 c0
       -1.7004994 -0.016302241 0.082849614 -4.090237
000020 36 d1 4a bd a1 ff f7 bd f0 8f 0b bf ad d1 06 c0
       -0.049515925 -0.12109304 -0.54516506 -2.1065476
000030 f4 54 51 c0 b8 55 80 3d 68 0c ce be f0 54 02 3d
       -3.2708101 0.062663496 -0.4024384 0.031819284

fc3.weight f4 [8, 16]
000000 0a 3b 1b bd b2 af e2 3c 82 d2 38 bf fb 5a 86 be
       -0.0378981 0.027671669 -0.7219621 -0.26241288
000010 01 c1 9f bf 8b 6d 74 bd 19 a0 1f 3d d4 76 e0 be
       -1.2480775 -0.05967478 0.03897104 -0.4384066
000020 60 61 b1 bd cc 8b 5f 3e b5 2f 94 be a4 a9 e3 be
       -0.08661151 0.21830672 -0.28942648 -0.44465363
000030 03 1c 4d 3d ec 61 c9 bd a5 93 9c bd 70 d6 b3 bc
       0.050075542 -0.0983313 -0.076453485 -0.021952838
000040 20 81 0d be 30 d3 23 bd a8 05 34 bf c0 8c 93 bd
       -0.13818789 -0.039996326 -0.7032113 -0.0720458
000050 bd e3 a1 bf 2b 0e bc 3e 60 e7 24 bd 71 24 f8 be
       -1.2647625 0.3672956 -0.04025972 -0.48465303
000060 21 eb c7 3e fc 70 d9 3c 37 f7 17 3f 62 74 b2 be
       0.39046577 0.026543133 0.59361595 -0.34854418
000070 ff 7d 05 bb 5e a9 36 3e 70 b2 d6 3e 50 27 1c 3e
       -0.002036929 0.17838046 0.41933012 0.15249372
000080 34 1a 53 bd c2 42 35 be 11 f9 c8 be d5 80 b0 3c
       -0.05153866 -0.17701247 -0.39252523 0.021545807
000090 3b db a6 bf b4 3c d3 3e 87 97 08 3b 24 22 19 bf
       -1.3035654 0.4125725 0.002084227 -0.5981772
0000a0 4c ed 48 be c5 08 a9 bd 29 c3 8f 3e c4 b1 44 be
       -0.19621772 -0.08253626 0.28078583 -0.19208437
0000b0 44 8a 4b 3d 48 4b 38 3d e7 a8 ee bd 08 ec 6b 3e
       0.049692407 0.04499367 -0.11653309 0.23039258
0000c0 99 b3 d1 bd 51 ae ed bd 64 d3 b3 be dc 3e 13 3e
       -0.10239334 -0.11605514 -0.35122216 0.14379448
0000d0 8c 18 aa bf 1f c5 c3 bd d6 04 b9 3c 2a c5 93 bf
       -1.3288741 -0.09559082 0.022585314 -1.1544545
0000e0 43 a9 95 3e 80 3e ca 3e aa a3 63 be 59 bd 56 be
       0.292307 0.3950081 -0.22230402 -0.20970668
0000f0 39 d4 d7 be be 8e 5d be f5 20 18 3e be 50 25 be
       -0.421541 -0.21636483 0.14856322 -0.16144082
000100 65 62 a7 be ba b3 0f 3e d0 17 26 bf 28 f2 e6 3d
       -0.32692257 0.14033404 -0.64880085 0.112766564
000110 79 ad aa bf fb eb de bb d9 48 a5 3a b1 ab b6 bf
       -1.333419 -0.0068030334 0.0012610211 -1.4271146
000120 eb 89 0e be 4a 0f 8a 3c 12 71 a9 be 45 23 90 be
       -0.13919799 0.016852994 -0.33094078 -0.2815191
000130 81 5c 79 be 34 67 28 3e 18 66 12 bd 20 c0 fd bc
       -0.24351694 0.16445619 -0.035741895 -0.030975401
000140 41 8c 40 be a9 d4 e8 3d 24 ea 4a bf 20 dd 64 3d
       -0.18803503 0.11368687 -0.7926352 0.055874944
000150 5b 1f b1 bf 0c 7f 09 bf 3f e3 82 be 2f 30 b8 bf
       -1.3837694 -0.53709483 -0.25564 -1.4389704
000160 8c 58 c7 bd 5b c9 6b 3c 3b 7d c6 3d cb 3a 0d be
       -0.09733686 0.014391269 0.096918546 -0.13791959
000170 dc c2 a5 bd 48 c5 51 bd 6c 6e b4 bd f0 de a8 3c
       -0.08093807 -0.051213533 -0.08810124 0.020614117
000180 e8 4d bc be 28 bd 71 be 93 b7 15 bf 08 2a 20 3e
       -0.36778188 -0.23607314 -0.5848324 0.15641034
000190 bb 4e ba bf f2 30 06 be d4 e3 af be a8 de ab bf
       -1.4555277 -0.13104609 -0.34353507 -1.3427324
0001a0 58 0c e3 bb 75 f4 e4 3e 42 4d 4a 3d 1c aa 97 be
       -0.0069289617 0.44717756 0.049390085 -0.2962197
0001b0 95 1f 9e be 64 77 ad 3d 00 e7 81 bc c4 29 1e be
       -0.3088347 0.084700376 -0.01585722 -0.1544562
0001c0 19 39 f6 3a e8 c2 9e 3d 09 ca 8a bf 0e 8a 08 3d
       0.0018785327 0.07752019 -1.0842906 0.033334784
0001d0 11 df ce bf af a8 aa bd f1 58 24 be fc f6 b9 bf
       -1.6161824 -0.08332955 -0.16049553 -1.4528499
0001e0 9d f9 4a be 30 87 df be cf 16 cc 3d 91 2f db be
       -0.19821782 -0.43657827 0.09965288 -0.42809728
0001f0 5b ef ad be 6c 8a 47 be 46 2f 40 3e b0 5a f6 3d
       -0.33971676 -0.19486398 0.18768033 0.12029016

fc3.bias f4 [8]
000000 eb 16 31 c0 ab 1c 04 c0 92 d1 01 c0 83 33 17 bf
       -2.7670238 -2.0642498 -2.0284162 -0.59062976
000010 f9 c3 26 bd 3e b8 04 3f ae d3 54 3f c2 c1 13 3f
       -0.040714238 0.5184363 0.831355 0.57717526
